Models/quant_model_13.tflite (tflite, 70560 bytes, 10 tensors)

sequential_2/batch_normalization_6/FusedBatchNormV3 i1 [32] scale=0.016638113 zero_point=0
0	0x98	-1.7303637
1	0xff	-0.016638113
2	0xb0	-1.3310491
3	0x00	0.0
4	0xc4	-0.9982868
5	0xaa	-1.4308777
6	0x98	-1.7303637
7	0x00	0.0
8	0xec	-0.33276227
9	0xf3	-0.21629547
10	0xab	-1.4142396
11	0x00	0.0
12	0x99	-1.7137257
13	0xb1	-1.3144109
14	0xb2	-1.2977729
15	0x00	0.0
16	0x81	-2.1130404
17	0xb7	-1.2145822
18	0x81	-2.1130404
19	0xc3	-1.0149249
20	0x9d	-1.6471732
21	0xbd	-1.1147536
22	0xa7	-1.480792
23	0xff	-0.016638113
24	0x95	-1.7802781
25	0x00	0.0
26	0xa2	-1.5639826
27	0x8c	-1.9300212
28	0xad	-1.3809634
29	0xae	-1.3643253
30	0x8c	-1.9300212
31	0xa3	-1.5473446

sequential_2/batch_normalization_6/FusedBatchNormV31 i1 [32] scale=0.2506774 zero_point=0
0	0x24	9.024386
1	0x7d	31.334677
2	0x0e	3.5094838
3	0x7e	31.585354
4	0x17	5.76558
5	0x20	8.021677
6	0x0e	3.5094838
7	0x7f	31.836031
8	0x39	14.288612
9	0x5f	23.814354
10	0x17	5.76558
11	0x7e	31.585354
12	0x11	4.261516
13	0x17	5.76558
14	0x16	5.514903
15	0x7e	31.585354
16	0x1e	7.5203223
17	0x1c	7.0189676
18	0x1a	6.5176125
19	0x1b	6.76829
20	0x0d	3.2588062
21	0x22	8.523032
22	0x13	4.762871
23	0x7f	31.836031
24	0x29	10.277774
25	0x7d	31.334677
26	0x17	5.76558
27	0x1d	7.2696447
28	0x1b	6.76829
29	0x24	9.024386
30	0x1e	7.5203223
31	0x18	6.016258

sequential_2/batch_normalization_7/FusedBatchNormV3 i1 [64] scale=0.006477219 zero_point=0
0	0xe8	-0.15545326
1	0xaf	-0.52465475
2	0x88	-0.77726626
3	0xc4	-0.38863313
4	0xbf	-0.42101923
5	0xc1	-0.4080648
6	0xd2	-0.2979521
7	0xcf	-0.31738374
8	0xcb	-0.34329262
9	0xcb	-0.34329262
10	0xe2	-0.19431657
11	0xdf	-0.21374823
12	0xc1	-0.4080648
13	0xc9	-0.35624704
14	0xe9	-0.14897604
15	0xd5	-0.2785204
16	0x98	-0.6736308
17	0xd0	-0.31090653
18	0xe4	-0.18136214
19	0xd4	-0.28499764
20	0x9f	-0.62829024
21	0xd5	-0.2785204
22	0xae	-0.531132
23	0xc5	-0.38215593
24	0xcf	-0.31738374
25	0xb0	-0.5181775
26	0xc4	-0.38863313
27	0xdd	-0.22670266
28	0xe9	-0.14897604
29	0xeb	-0.1360216
30	0xca	-0.34976983
31	0x9f	-0.62829024
32	0xde	-0.22022545
33	0xe5	-0.17488492
34	0xdf	-0.21374823
35	0xbf	-0.42101923
36	0x81	-0.8226068
37	0xa1	-0.6153358
38	0xbd	-0.43397367
39	0xd7	-0.265566
40	0xc5	-0.38215593
41	0x97	-0.680108
42	0xca	-0.34976983
43	0xb8	-0.46635976
44	0xc5	-0.38215593
45	0xd0	-0.31090653
46	0xd1	-0.3044293
47	0xb8	-0.46635976
48	0x8e	-0.73840296
49	0xae	-0.531132
50	0xca	-0.34976983
51	0xb1	-0.51170033
52	0xa9	-0.56351805
53	0xe2	-0.19431657
54	0xce	-0.32386094
55	0xca	-0.34976983
56	0xf4	-0.07772663
57	0xc3	-0.39511037
58	0xc0	-0.41454202
59	0xb7	-0.472837
60	0xc6	-0.37567872
61	0xa1	-0.6153358
62	0xb2	-0.5052231
63	0xe0	-0.20727101

sequential_2/batch_normalization_7/FusedBatchNormV31 i1 [64] scale=0.056865927 zero_point=0
0	0x24	2.0471733
1	0x0a	0.56865925
2	0x08	0.4549274
3	0x11	0.96672076
4	0x0c	0.6823911
5	0x11	0.96672076
6	0x26	2.1609051
7	0x17	1.3079163
8	0x11	0.96672076
9	0x1c	1.5922459
10	0x19	1.4216481
11	0x26	2.1609051
12	0x0f	0.8529889
13	0x19	1.4216481
14	0x22	1.9334415
15	0x11	0.96672076
16	0x0b	0.6255252
17	0x21	1.8765756
18	0x15	1.1941844
19	0x1f	1.7628437
20	0x08	0.4549274
21	0x21	1.8765756
22	0x09	0.5117933
23	0x12	1.0235866
24	0x1e	1.7059778
25	0x17	1.3079163
26	0x13	1.0804526
27	0x7f	7.221973
28	0x20	1.8197097
29	0x30	2.7295644
30	0x14	1.1373185
31	0x0a	0.56865925
32	0x48	4.0943465
33	0x25	2.1040392
34	0x1b	1.53538
35	0x0f	0.8529889
36	0x08	0.4549274
37	0x09	0.5117933
38	0x13	1.0804526
39	0x24	2.0471733
40	0x0c	0.6823911
41	0x0a	0.56865925
42	0x12	1.0235866
43	0x0f	0.8529889
44	0x14	1.1373185
45	0x17	1.3079163
46	0x19	1.4216481
47	0x0c	0.6823911
48	0x0c	0.6823911
49	0x0e	0.79612297
50	0x15	1.1941844
51	0x0a	0.56865925
52	0x0c	0.6823911
53	0x23	1.9903075
54	0x1a	1.4785141
55	0x16	1.2510504
56	0x34	2.9570282
57	0x0e	0.79612297
58	0x11	0.96672076
59	0x11	0.96672076
60	0x0f	0.8529889
61	0x09	0.5117933
62	0x11	0.96672076
63	0x23	1.9903075

sequential_2/batch_normalization_8/FusedBatchNormV3 i1 [64] scale=0.0051614637 zero_point=0
0	0x81	-0.6555059
1	0xee	-0.09290635
2	0x9a	-0.5264693
3	0x97	-0.5419537
4	0xfa	-0.030968782
5	0x94	-0.5574381
6	0x9e	-0.50582343
7	0xc0	-0.33033368
8	0xab	-0.43872443
9	0xd5	-0.22194295
10	0x0a	0.05161464
11	0xdb	-0.19097416
12	0x03	0.015484391
13	0x9d	-0.5109849
14	0xbe	-0.3406566
15	0xfe	-0.0103229275
16	0x9c	-0.51614636
17	0xd2	-0.23742734
18	0xff	-0.0051614637
19	0xd3	-0.23226587
20	0xfd	-0.015484391
21	0xb9	-0.36646393
22	0xbe	-0.3406566
23	0xfe	-0.0103229275
24	0x95	-0.5522766
25	0xfe	-0.0103229275
26	0x92	-0.567761
27	0xad	-0.4284015
28	0xfc	-0.020645855
29	0x8c	-0.5987298
30	0xff	-0.0051614637
31	0xb5	-0.3871098
32	0xa0	-0.4955005
33	0xf2	-0.07226049
34	0xba	-0.36130247
35	0x07	0.036130246
36	0xe8	-0.123875126
37	0xfe	-0.0103229275
38	0xce	-0.25807318
39	0xb9	-0.36646393
40	0xa1	-0.49033907
41	0xf4	-0.061937563
42	0xfc	-0.020645855
43	0x92	-0.567761
44	0xc1	-0.32517222
45	0x9e	-0.50582343
46	0xca	-0.27871904
47	0x98	-0.5367922
48	0xf9	-0.036130246
49	0xfb	-0.02580732
50	0xaa	-0.4438859
51	0x9d	-0.5109849
52	0x8e	-0.58840686
53	0xfc	-0.020645855
54	0x99	-0.53163075
55	0x94	-0.5574381
56	0xfe	-0.0103229275
57	0x9b	-0.5213078
58	0x9e	-0.50582343
59	0xb9	-0.36646393
60	0xd7	-0.21162002
61	0xf5	-0.056776103
62	0x05	0.02580732
63	0xfe	-0.0103229275

sequential_2/batch_normalization_8/FusedBatchNormV31 i1 [64] scale=0.22580379 zero_point=0
0	0x00	0.0
1	0x00	0.0
2	0x00	0.0
3	0x00	0.0
4	0x00	0.0
5	0x00	0.0
6	0x00	0.0
7	0x00	0.0
8	0x00	0.0
9	0x00	0.0
10	0x00	0.0
11	0x00	0.0
12	0x00	0.0
13	0x00	0.0
14	0x00	0.0
15	0x00	0.0
16	0x00	0.0
17	0x00	0.0
18	0x00	0.0
19	0x00	0.0
20	0x00	0.0
21	0x00	0.0
22	0x00	0.0
23	0x00	0.0
24	0x00	0.0
25	0x00	0.0
26	0x00	0.0
27	0x00	0.0
28	0x00	0.0
29	0x00	0.0
30	0x00	0.0
31	0x01	0.22580379
32	0x00	0.0
33	0x00	0.0
34	0x01	0.22580379
35	0x00	0.0
36	0x00	0.0
37	0x00	0.0
38	0x01	0.22580379
39	0x00	0.0
40	0x00	0.0
41	0x00	0.0
42	0x00	0.0
43	0x00	0.0
44	0x00	0.0
45	0x00	0.0
46	0x00	0.0
47	0x00	0.0
48	0x00	0.0
49	0x7f	28.677082
50	0x00	0.0
51	0x00	0.0
52	0x00	0.0
53	0x00	0.0
54	0x00	0.0
55	0x00	0.0
56	0x00	0.0
57	0x00	0.0
58	0x00	0.0
59	0x00	0.0
60	0x00	0.0
61	0x00	0.0
62	0x00	0.0
63	0x00	0.0

sequential_2/dense_2/MatMul i1 [5, 256] scale=0.0038750935 zero_point=0
0	0xda	-0.14725356
1	0x02	0.007750187
2	0xd3	-0.17437921
3	0xf5	-0.04262603
4	0xcc	-0.20150486
5	0xf1	-0.058126405
6	0xfe	-0.007750187
7	0xf3	-0.050376214
8	0x23	0.13562827
9	0xed	-0.07362678
10	0xc9	-0.21313015
11	0x22	0.13175318
12	0x22	0.13175318
13	0x06	0.023250561
14	0x15	0.08137696
15	0x11	0.06587659
16	0xef	-0.06587659
17	0x19	0.09687734
18	0x32	0.19375467
19	0x15	0.08137696
20	0x3c	0.23250562
21	0x13	0.07362678
22	0xf0	-0.062001497
23	0x2f	0.1821294
24	0xfd	-0.011625281
25	0x40	0.24800599
26	0xfd	-0.011625281
27	0x13	0.07362678
28	0x8d	-0.44563577
29	0xdd	-0.13562827
30	0x3b	0.22863051
31	0x06	0.023250561
32	0xfe	-0.007750187
33	0xe5	-0.10462753
34	0xf8	-0.031000748
35	0x2a	0.16275392
36	0x0e	0.05425131
37	0x07	0.027125655
38	0xfc	-0.015500374
39	0xf4	-0.046501122
40	0x08	0.031000748
41	0x3d	0.23638071
42	0x3b	0.22863051
43	0xe2	-0.11625281
44	0xfd	-0.011625281
45	0xe9	-0.08912715
46	0xd1	-0.1821294
47	0x05	0.019375468
48	0x1d	0.11237771
49	0x0f	0.058126405
50	0xec	-0.07750187
51	0x16	0.08525206
52	0xee	-0.06975168
53	0x07	0.027125655
54	0x13	0.07362678
55	0xfb	-0.019375468
56	0xd0	-0.18600449
57	0xe2	-0.11625281
58	0x13	0.07362678
59	0xf9	-0.027125655
60	0x0f	0.058126405
61	0x51	0.3138826
62	0x23	0.13562827
63	0x29	0.15887883
64	0x15	0.08137696
65	0xb2	-0.3022573
66	0x01	0.0038750935
67	0xf3	-0.050376214
68	0x49	0.28288183
69	0xe0	-0.12400299
70	0x1b	0.10462753
71	0xe5	-0.10462753
72	0xb0	-0.31000748
73	0x34	0.20150486
74	0x7c	0.4805116
75	0xc8	-0.21700524
76	0x03	0.011625281
77	0xfc	-0.015500374
78	0x0b	0.04262603
79	0x40	0.24800599
80	0x13	0.07362678
81	0xcc	-0.20150486
82	0xbe	-0.25575617
83	0xe2	-0.11625281
84	0xdf	-0.12787808
85	0xee	-0.06975168
86	0x13	0.07362678
87	0x82	-0.4882618
88	0xea	-0.08525206
89	0x96	-0.41075993
90	0xdb	-0.14337847
91	0x04	0.015500374
92	0x64	0.38750935
93	0xe3	-0.11237771
94	0xbc	-0.26350635
95	0x8d	-0.44563577
96	0x11	0.06587659
97	0xff	-0.0038750935
98	0xd5	-0.16662902
99	0xb9	-0.27513164
100	0xe7	-0.09687734
101	0x19	0.09687734
102	0xcc	-0.20150486
103	0xf3	-0.050376214
104	0x03	0.011625281
105	0xa5	-0.3526335
106	0xb6	-0.28675693
107	0xf1	-0.058126405
108	0xe9	-0.08912715
109	0xf1	-0.058126405
110	0xf3	-0.050376214
111	0xfd	-0.011625281
112	0x1b	0.10462753
113	0xeb	-0.08137696
114	0xe6	-0.10075243
115	0xe0	-0.12400299
116	0x0a	0.038750935
117	0x35	0.20537996
118	0xfe	-0.007750187
119	0xea	-0.08525206
120	0x62	0.37975916
121	0xf6	-0.038750935
122	0xc3	-0.23638071
123	0xee	-0.06975168
124	0xec	-0.07750187
125	0xa5	-0.3526335
126	0xde	-0.13175318
127	0x2d	0.17437921
128	0x25	0.14337847
129	0x0a	0.038750935
130	0x0b	0.04262603
131	0xf4	-0.046501122
132	0xd2	-0.1782543
133	0x0f	0.058126405
134	0xfa	-0.023250561
135	0xf8	-0.031000748
136	0xc8	-0.21700524
137	0x00	0.0
138	0xc7	-0.22088033
139	0xea	-0.08525206
140	0xde	-0.13175318
141	0xfe	-0.007750187
142	0xe0	-0.12400299
143	0xa0	-0.37200898
144	0x04	0.015500374
145	0xf0	-0.062001497
146	0xba	-0.27125654
147	0xd9	-0.15112865
148	0xa7	-0.34488332
149	0x04	0.015500374
150	0xf2	-0.05425131
151	0xee	-0.06975168
152	0x04	0.015500374
153	0xcf	-0.18987958
154	0x0d	0.050376214
155	0x02	0.007750187
156	0xfd	-0.011625281
157	0x2d	0.17437921
158	0xe2	-0.11625281
159	0xf0	-0.062001497
160	0xfa	-0.023250561
161	0x2e	0.1782543
162	0xd7	-0.15887883
163	0xc1	-0.2441309
164	0x32	0.19375467
165	0x07	0.027125655
166	0x33	0.19762976
167	0xfc	-0.015500374
168	0x1b	0.10462753
169	0xee	-0.06975168
170	0xde	-0.13175318
171	0x13	0.07362678
172	0x11	0.06587659
173	0x18	0.093002245
174	0xf3	-0.050376214
175	0x12	0.06975168
176	0xcd	-0.19762976
177	0x04	0.015500374
178	0xd3	-0.17437921
179	0xf0	-0.062001497
180	0xf9	-0.027125655
181	0xb2	-0.3022573
182	0x02	0.007750187
183	0x11	0.06587659
184	0x8e	-0.44176066
185	0xfa	-0.023250561
186	0x02	0.007750187
187	0xee	-0.06975168
188	0xef	-0.06587659
189	0xdd	-0.13562827
190	0x0d	0.050376214
191	0xde	-0.13175318
192	0xf5	-0.04262603
193	0x27	0.15112865
194	0x06	0.023250561
195	0x1a	0.10075243
196	0x30	0.18600449
197	0x00	0.0
198	0x03	0.011625281
199	0x30	0.18600449
200	0x12	0.06975168
201	0xad	-0.32163277
202	0xd9	-0.15112865
203	0xd9	-0.15112865
204	0xe2	-0.11625281
205	0xf9	-0.027125655
206	0xde	-0.13175318
207	0xfe	-0.007750187
208	0x0a	0.038750935
209	0xfd	-0.011625281
210	0x20	0.12400299
211	0x16	0.08525206
212	0x13	0.07362678
213	0xfb	-0.019375468
214	0x35	0.20537996
215	0xd2	-0.1782543
216	0x11	0.06587659
217	0x13	0.07362678
218	0x0b	0.04262603
219	0xf3	-0.050376214
220	0xdc	-0.13950336
221	0xfa	-0.023250561
222	0xf1	-0.058126405
223	0x08	0.031000748
224	0xf9	-0.027125655
225	0xb4	-0.29450712
226	0x27	0.15112865
227	0xd7	-0.15887883
228	0xef	-0.06587659
229	0xc7	-0.22088033
230	0x01	0.0038750935
231	0x2b	0.16662902
232	0x02	0.007750187
233	0xfa	-0.023250561
234	0xf5	-0.04262603
235	0xf8	-0.031000748
236	0x18	0.093002245
237	0xf4	-0.046501122
238	0x2b	0.16662902
239	0x00	0.0
240	0x1c	0.10850262
241	0x01	0.0038750935
242	0x1a	0.10075243
243	0x13	0.07362678
244	0x1b	0.10462753
245	0x07	0.027125655
246	0x14	0.07750187
247	0xe6	-0.10075243
248	0x24	0.13950336
249	0xf2	-0.05425131
250	0x27	0.15112865
251	0x0c	0.046501122
252	0xfd	-0.011625281
253	0x1d	0.11237771
254	0x81	-0.49213687
255	0xbe	-0.25575617

sequential_2/conv2d_6/Conv2D i1 [32, 3, 3, 3]
0	0x00	0
1	0x15	21
2	0x07	7
3	0x44	68
4	0x7b	123
5	0xf3	-13
6	0x78	120
7	0x05	5
8	0x1f	31
9	0xc9	-55
10	0x10	16
11	0xc5	-59
12	0xd3	-45
13	0x23	35
14	0xdb	-37
15	0x0c	12
16	0xbc	-68
17	0x5a	90
18	0xbe	-66
19	0x81	-127
20	0xb5	-75
21	0x27	39
22	0x3d	61
23	0x49	73
24	0xf9	-7
25	0xce	-50
26	0x7c	124
27	0x2e	46
28	0xd7	-41
29	0xde	-34
30	0x0d	13
31	0x10	16
32	0x05	5
33	0xe9	-23
34	0xae	-82
35	0x2e	46
36	0xd0	-48
37	0x1b	27
38	0x00	0
39	0xc4	-60
40	0xbe	-66
41	0xb9	-71
42	0xe1	-31
43	0xa6	-90
44	0xb8	-72
45	0x03	3
46	0x7f	127
47	0xfd	-3
48	0x45	69
49	0xbe	-66
50	0xa7	-89
51	0xad	-83
52	0x02	2
53	0xf0	-16
54	0x7f	127
55	0x2b	43
56	0x4e	78
57	0x68	104
58	0x38	56
59	0x22	34
60	0x37	55
61	0xfd	-3
62	0x0f	15
63	0x5b	91
64	0x36	54
65	0xc3	-61
66	0x05	5
67	0x03	3
68	0x49	73
69	0xe7	-25
70	0x12	18
71	0x59	89
72	0x42	66
73	0x14	20
74	0x17	23
75	0x21	33
76	0xef	-17
77	0x4b	75
78	0x29	41
79	0xa7	-89
80	0x21	33
81	0x35	53
82	0x0f	15
83	0xa9	-87
84	0x81	-127
85	0x19	25
86	0x9e	-98
87	0x33	51
88	0xeb	-21
89	0x2c	44
90	0xf3	-13
91	0x9d	-99
92	0xaf	-81
93	0xfe	-2
94	0xae	-82
95	0x3f	63
96	0x3e	62
97	0x16	22
98	0x6e	110
99	0xd5	-43
100	0xff	-1
101	0x00	0
102	0x9f	-97
103	0x40	64
104	0xc4	-60
105	0xf9	-7
106	0xb8	-72
107	0x89	-119
108	0xc5	-59
109	0x03	3
110	0xb9	-71
111	0xb5	-75
112	0x03	3
113	0xbf	-65
114	0x97	-105
115	0x2c	44
116	0x6a	106
117	0xf2	-14
118	0x15	21
119	0xc7	-57
120	0xb9	-71
121	0x0a	10
122	0x30	48
123	0xb5	-75
124	0x1b	27
125	0x3d	61
126	0xdb	-37
127	0x21	33
128	0xf0	-16
129	0xb7	-73
130	0xfc	-4
131	0x2f	47
132	0xeb	-21
133	0x22	34
134	0x7f	127
135	0xe1	-31
136	0x33	51
137	0xa6	-90
138	0x98	-104
139	0x20	32
140	0x78	120
141	0x35	53
142	0xa6	-90
143	0xd0	-48
144	0xff	-1
145	0x1d	29
146	0xd2	-46
147	0x44	68
148	0x7f	127
149	0x3c	60
150	0x03	3
151	0xec	-20
152	0x30	48
153	0xef	-17
154	0x07	7
155	0x61	97
156	0xfe	-2
157	0x46	70
158	0x57	87
159	0xe2	-30
160	0x96	-106
161	0x22	34
162	0x1b	27
163	0x60	96
164	0x6a	106
165	0x7f	127
166	0x36	54
167	0x70	112
168	0x60	96
169	0x1a	26
170	0xf3	-13
171	0xed	-19
172	0x36	54
173	0x69	105
174	0xf6	-10
175	0x38	56
176	0x2a	42
177	0xda	-38
178	0x06	6
179	0x3c	60
180	0x0d	13
181	0x21	33
182	0x51	81
183	0x06	6
184	0x2f	47
185	0x15	21
186	0x1f	31
187	0x1a	26
188	0x74	116
189	0x0d	13
190	0x47	71
191	0xf3	-13
192	0xb5	-75
193	0xd8	-40
194	0x60	96
195	0xa9	-87
196	0xd1	-47
197	0xb8	-72
198	0xe9	-23
199	0x9c	-100
200	0x23	35
201	0xd2	-46
202	0x86	-122
203	0xc4	-60
204	0xb2	-78
205	0xa2	-94
206	0x4f	79
207	0x36	54
208	0x81	-127
209	0xb9	-71
210	0xb0	-80
211	0x85	-123
212	0x1c	28
213	0x31	49
214	0x25	37
215	0x2b	43
216	0xb5	-75
217	0xe5	-27
218	0xf0	-16
219	0x7e	126
220	0xf7	-9
221	0xed	-19
222	0x70	112
223	0x1d	29
224	0x12	18
225	0x08	8
226	0x04	4
227	0xfe	-2
228	0xa1	-95
229	0xfc	-4
230	0xc9	-55
231	0x35	53
232	0xf5	-11
233	0x39	57
234	0x81	-127
235	0xe6	-26
236	0xb1	-79
237	0x8e	-114
238	0xe1	-31
239	0xc7	-57
240	0xdc	-36
241	0xef	-17
242	0x5d	93
243	0x5d	93
244	0x07	7
245	0x19	25
246	0x50	80
247	0x06	6
248	0x14	20
249	0xfd	-3
250	0x10	16
251	0x12	18
252	0x81	-127
253	0xe0	-32
254	0xf2	-14
255	0x33	51

sequential_2/conv2d_7/Conv2D i1 [64, 3, 3, 32]
0	0xd0	-48
1	0xf4	-12
2	0xd7	-41
3	0x21	33
4	0x56	86
5	0xa4	-92
6	0xe0	-32
7	0x07	7
8	0xe4	-28
9	0x34	52
10	0xb7	-73
11	0xe9	-23
12	0xd5	-43
13	0x18	24
14	0xce	-50
15	0x3b	59
16	0xbe	-66
17	0xfe	-2
18	0xa2	-94
19	0xc2	-62
20	0x15	21
21	0x1d	29
22	0xdc	-36
23	0xdf	-33
24	0xd3	-45
25	0x3a	58
26	0xf2	-14
27	0x13	19
28	0xa3	-93
29	0xdc	-36
30	0xbc	-68
31	0x2f	47
32	0xbc	-68
33	0x2e	46
34	0xf6	-10
35	0xe2	-30
36	0x2f	47
37	0xf7	-9
38	0xe0	-32
39	0x1f	31
40	0xd6	-42
41	0xc1	-63
42	0xfe	-2
43	0xc3	-61
44	0xcb	-53
45	0xbf	-65
46	0x4b	75
47	0xc6	-58
48	0xe5	-27
49	0x14	20
50	0xf7	-9
51	0x13	19
52	0xa6	-90
53	0xcc	-52
54	0xdf	-33
55	0xfe	-2
56	0xe3	-29
57	0x0f	15
58	0xbf	-65
59	0xca	-54
60	0x95	-107
61	0xf9	-7
62	0xd3	-45
63	0x45	69
64	0xae	-82
65	0xe8	-24
66	0x00	0
67	0xf2	-14
68	0x0c	12
69	0xb3	-77
70	0xdb	-37
71	0xd3	-45
72	0xd2	-46
73	0xf7	-9
74	0xdd	-35
75	0x3f	63
76	0xc5	-59
77	0xb0	-80
78	0x3a	58
79	0xca	-54
80	0x19	25
81	0x30	48
82	0x20	32
83	0xae	-82
84	0xfe	-2
85	0xe5	-27
86	0x00	0
87	0x37	55
88	0xfa	-6
89	0xe0	-32
90	0xda	-38
91	0xd8	-40
92	0xff	-1
93	0xcc	-52
94	0xe4	-28
95	0x3b	59
96	0x11	17
97	0x0b	11
98	0xeb	-21
99	0x18	24
100	0x4d	77
101	0x0a	10
102	0xba	-70
103	0xff	-1
104	0x0b	11
105	0xab	-85
106	0xba	-70
107	0xc2	-62
108	0xef	-17
109	0xa9	-87
110	0x0a	10
111	0x0e	14
112	0xd5	-43
113	0x9f	-97
114	0xd9	-39
115	0x08	8
116	0xf6	-10
117	0x1c	28
118	0x01	1
119	0x15	21
120	0xe4	-28
121	0x2a	42
122	0xae	-82
123	0xe8	-24
124	0xa0	-96
125	0x16	22
126	0xf2	-14
127	0x03	3
128	0x2c	44
129	0x3e	62
130	0x06	6
131	0x24	36
132	0x32	50
133	0x02	2
134	0xf7	-9
135	0xe1	-31
136	0x08	8
137	0xe0	-32
138	0x14	20
139	0xcb	-53
140	0x24	36
141	0x37	55
142	0x56	86
143	0x07	7
144	0x1a	26
145	0x01	1
146	0xdb	-37
147	0x35	53
148	0xbb	-69
149	0xc2	-62
150	0xda	-38
151	0xe8	-24
152	0xc3	-61
153	0xf9	-7
154	0x21	33
155	0x30	48
156	0x9a	-102
157	0xca	-54
158	0xe2	-30
159	0x4e	78
160	0x2e	46
161	0xe8	-24
162	0x36	54
163	0x04	4
164	0x25	37
165	0x4b	75
166	0x29	41
167	0xe9	-23
168	0xce	-50
169	0x00	0
170	0x14	20
171	0xd1	-47
172	0xc6	-58
173	0x08	8
174	0x4e	78
175	0xc6	-58
176	0x03	3
177	0x1a	26
178	0x19	25
179	0x33	51
180	0x1c	28
181	0xad	-83
182	0xd6	-42
183	0x17	23
184	0xf6	-10
185	0xf5	-11
186	0x05	5
187	0xc2	-62
188	0x14	20
189	0xe4	-28
190	0x46	70
191	0x54	84
192	0x0e	14
193	0xc6	-58
194	0x8b	-117
195	0x0e	14
196	0xfa	-6
197	0x0a	10
198	0x9c	-100
199	0x36	54
200	0xf6	-10
201	0xdb	-37
202	0x1e	30
203	0x33	51
204	0xf5	-11
205	0x25	37
206	0xeb	-21
207	0x1c	28
208	0xeb	-21
209	0xb1	-79
210	0xa0	-96
211	0xd7	-41
212	0xe9	-23
213	0x0e	14
214	0xe9	-23
215	0xe9	-23
216	0xfc	-4
217	0xbd	-67
218	0xcd	-51
219	0xd8	-40
220	0xb0	-80
221	0x01	1
222	0xe7	-25
223	0xdc	-36
224	0xf6	-10
225	0xef	-17
226	0xa0	-96
227	0xc2	-62
228	0xf9	-7
229	0xf2	-14
230	0xe5	-27
231	0xc3	-61
232	0x26	38
233	0xdf	-33
234	0x1d	29
235	0xf7	-9
236	0xda	-38
237	0x02	2
238	0x0f	15
239	0x35	53
240	0x11	17
241	0x28	40
242	0xff	-1
243	0xec	-20
244	0x05	5
245	0xcd	-51
246	0xdb	-37
247	0x4c	76
248	0xfb	-5
249	0xd6	-42
250	0xd6	-42
251	0x04	4
252	0xa8	-88
253	0x19	25
254	0x14	20
255	0x35	53

sequential_2/conv2d_8/Conv2D i1 [64, 3, 3, 64]
0	0x10	16
1	0x25	37
2	0xee	-18
3	0x13	19
4	0x0b	11
5	0xd8	-40
6	0xe6	-26
7	0x08	8
8	0xfd	-3
9	0x1e	30
10	0xf2	-14
11	0x26	38
12	0xf1	-15
13	0xf1	-15
14	0xf9	-7
15	0xdf	-33
16	0xed	-19
17	0xf5	-11
18	0xd1	-47
19	0x3d	61
20	0xf4	-12
21	0x6c	108
22	0xf4	-12
23	0x02	2
24	0x0e	14
25	0x17	23
26	0x06	6
27	0x23	35
28	0xf8	-8
29	0x33	51
30	0x17	23
31	0x40	64
32	0xef	-17
33	0x0b	11
34	0x1a	26
35	0x40	64
36	0x0e	14
37	0x29	41
38	0xdf	-33
39	0x06	6
40	0xf4	-12
41	0xf4	-12
42	0x22	34
43	0x02	2
44	0x33	51
45	0x13	19
46	0xf0	-16
47	0xde	-34
48	0xfa	-6
49	0x12	18
50	0xf3	-13
51	0x07	7
52	0x18	24
53	0xf5	-11
54	0xe7	-25
55	0xe6	-26
56	0xeb	-21
57	0xe1	-31
58	0x10	16
59	0xff	-1
60	0xf1	-15
61	0xf4	-12
62	0x19	25
63	0x68	104
64	0xec	-20
65	0xed	-19
66	0x15	21
67	0xd7	-41
68	0x28	40
69	0x01	1
70	0x16	22
71	0xf7	-9
72	0x14	20
73	0x05	5
74	0x2a	42
75	0xdc	-36
76	0xd5	-43
77	0xf8	-8
78	0xf5	-11
79	0x10	16
80	0xf4	-12
81	0x2f	47
82	0xd1	-47
83	0xd1	-47
84	0xcc	-52
85	0x19	25
86	0xfb	-5
87	0x15	21
88	0x32	50
89	0x0e	14
90	0xfd	-3
91	0x44	68
92	0x02	2
93	0x27	39
94	0xf1	-15
95	0xfa	-6
96	0xef	-17
97	0x2a	42
98	0xf3	-13
99	0x14	20
100	0xee	-18
101	0x07	7
102	0xf3	-13
103	0x2c	44
104	0xe2	-30
105	0x0a	10
106	0xca	-54
107	0x0f	15
108	0x1a	26
109	0xe5	-27
110	0xf1	-15
111	0x0e	14
112	0xfa	-6
113	0xd2	-46
114	0xd5	-43
115	0x05	5
116	0x24	36
117	0xc8	-56
118	0x1a	26
119	0x23	35
120	0xf3	-13
121	0xf2	-14
122	0x0c	12
123	0x04	4
124	0xe8	-24
125	0xfb	-5
126	0x24	36
127	0x7f	127
128	0x23	35
129	0xe8	-24
130	0xf8	-8
131	0xee	-18
132	0x13	19
133	0xe6	-26
134	0xff	-1
135	0x24	36
136	0xf6	-10
137	0xe9	-23
138	0x0f	15
139	0x1e	30
140	0x09	9
141	0xe0	-32
142	0xef	-17
143	0xc5	-59
144	0xd1	-47
145	0x20	32
146	0x06	6
147	0x04	4
148	0xe8	-24
149	0x08	8
150	0xfe	-2
151	0x1e	30
152	0x01	1
153	0xf7	-9
154	0xce	-50
155	0x2f	47
156	0x2e	46
157	0xef	-17
158	0xe9	-23
159	0xe3	-29
160	0xff	-1
161	0xa4	-92
162	0x04	4
163	0x33	51
164	0xfa	-6
165	0x05	5
166	0xfb	-5
167	0xff	-1
168	0xf5	-11
169	0xf4	-12
170	0x13	19
171	0x20	32
172	0xfa	-6
173	0x19	25
174	0x1f	31
175	0x04	4
176	0x08	8
177	0x47	71
178	0xec	-20
179	0x04	4
180	0x28	40
181	0xe6	-26
182	0x20	32
183	0xe3	-29
184	0xee	-18
185	0xe3	-29
186	0xd2	-46
187	0x52	82
188	0x10	16
189	0x19	25
190	0xe2	-30
191	0x27	39
192	0x2f	47
193	0x28	40
194	0xfb	-5
195	0x24	36
196	0x10	16
197	0x2c	44
198	0xed	-19
199	0x00	0
200	0x3b	59
201	0xf6	-10
202	0x27	39
203	0x0b	11
204	0xf6	-10
205	0xce	-50
206	0x43	67
207	0x29	41
208	0x11	17
209	0xfa	-6
210	0x33	51
211	0xe8	-24
212	0xf8	-8
213	0xf6	-10
214	0x11	17
215	0x36	54
216	0x0d	13
217	0x19	25
218	0x36	54
219	0x1e	30
220	0x0c	12
221	0xe8	-24
222	0x13	19
223	0x4d	77
224	0x18	24
225	0xe3	-29
226	0x5c	92
227	0x09	9
228	0xec	-20
229	0xf7	-9
230	0x0d	13
231	0xfc	-4
232	0xcb	-53
233	0x14	20
234	0x35	53
235	0x13	19
236	0x41	65
237	0x2a	42
238	0x36	54
239	0x2a	42
240	0x34	52
241	0x10	16
242	0x34	52
243	0x14	20
244	0x06	6
245	0xd7	-41
246	0x1e	30
247	0xfa	-6
248	0x1f	31
249	0x27	39
250	0x0f	15
251	0x25	37
252	0x0e	14
253	0xd7	-41
254	0x2a	42
255	0xd8	-40
